…
2023-12-23 20:02:29,995 - /nfs/data_chaos/sazzolin/sedignn/CIGA_fork/main.py[line:336] - INFO: # Train: 9000  #Val: 3000 #Test: 3000 
wandb: Currently logged in as: mcstewe. Use `wandb login --relogin` to force relogin
wandb: Tracking run with wandb version 0.16.1
wandb: Run data is saved locally in /nfs/data_chaos/sazzolin/sedignn/CIGA_fork/wandb/run-20231223_200231-1cex3mgf
wandb: Run `wandb offline` to turn off syncing.
wandb: Syncing run CIGAv1_gcn_3l_SPMotif0.33_feat-feat_seed1
wandb: ⭐️ View project at https://wandb.ai/mcstewe/sedignn
wandb: 🚀 View run at https://wandb.ai/mcstewe/sedignn/runs/1cex3mgf
CIGA(
  (gnn_encoder): GNN_node(
    (node_encoder): Linear(in_features=4, out_features=32, bias=True)
    (convs): ModuleList(
      (0-2): 3 x GCNConv(
        (linear): Linear(in_features=32, out_features=32, bias=True)
        (root_emb): Embedding(1, 32)
      )
    )
    (batch_norms): ModuleList(
      (0-2): 3 x BatchNorm1d(32, eps=1e-05, momentum=0.1, affine=True, track_running_stats=True)
    )
  )
  (edge_att): Sequential(
    (0): Linear(in_features=64, out_features=128, bias=True)
    (1): ReLU()
    (2): Linear(in_features=128, out_features=1, bias=True)
  )
  (classifier): GNN(
    (gnn_node): GNN_node(
      (node_encoder): Linear(in_features=32, out_features=32, bias=True)
      (convs): ModuleList(
        (0-2): 3 x GCNConv(
          (linear): Linear(in_features=32, out_features=32, bias=True)
          (root_emb): Embedding(1, 32)
        )
      )
      (batch_norms): ModuleList(
        (0-2): 3 x BatchNorm1d(32, eps=1e-05, momentum=0.1, affine=True, track_running_stats=True)
      )
    )
    (graph_pred_linear): Sequential(
      (0): Linear(in_features=32, out_features=64, bias=True)
      (1): ReLU()
      (2): Linear(in_features=64, out_features=3, bias=True)
    )
    (spu_mlp): Sequential(
      (0): Linear(in_features=32, out_features=64, bias=True)
      (1): ReLU()
      (2): Linear(in_features=64, out_features=3, bias=True)
    )
    (cq): Linear(in_features=3, out_features=3, bias=True)
    (spu_fw): Sequential(
      (0): Sequential(
        (0): Linear(in_features=32, out_features=64, bias=True)
        (1): ReLU()
        (2): Linear(in_features=64, out_features=3, bias=True)
      )
      (1): Linear(in_features=3, out_features=3, bias=True)
    )
  )
)
Epoch [0] >>  :   0%|               | 0/282 [00:00<?, ?it/s]Epoch [0] >>  :   0%|       | 1/282 [00:00<01:59,  2.36it/s]Epoch [0] >>  :   1%|       | 4/282 [00:00<00:31,  8.74it/s]Epoch [0] >>  :   2%|▏      | 7/282 [00:00<00:20, 13.37it/s]Epoch [0] >>  :   4%|▏     | 10/282 [00:00<00:16, 16.48it/s]Epoch [0] >>  :   5%|▎     | 13/282 [00:
…
